erasers/sycophancy/eras_layer_7_Llama-2-7b-chat-hf.pt (torch, 83483 bytes, 3 tensors)

proj_left f4 [4096, 2]
0	0xbc172ef2	-0.009227501
1	0x00000000	0.0
2	0x3a50ead4	0.00079695624
3	0x00000000	0.0
4	0xbad33f05	-0.0016116804
5	0x00000000	0.0
6	0xbb1a5bd1	-0.0023553262
7	0x00000000	0.0
8	0xbc63671a	-0.013879562
9	0x00000000	0.0
10	0x3bca6fdb	0.006177885
11	0x00000000	0.0
12	0xbbdd7531	-0.006758355
13	0x00000000	0.0
14	0x3c022339	0.007942968
15	0x00000000	0.0
16	0x3b32ef0e	0.0027303132
17	0x00000000	0.0
18	0x3c449987	0.011999494
19	0x00000000	0.0
20	0xbbdadc4a	-0.0066790925
21	0x00000000	0.0
22	0xbaf34ec8	-0.0018562907
23	0x00000000	0.0
24	0x3b894b40	0.0041898787
25	0x00000000	0.0
26	0x3c72abca	0.0148114655
27	0x00000000	0.0
28	0x3b2aa063	0.002603554
29	0x00000000	0.0
30	0xbb4c1851	-0.0031142423
31	0x00000000	0.0
32	0x3aeab4f1	0.0017906708
33	0x00000000	0.0
34	0x3c6a5a37	0.014303735
35	0x00000000	0.0
36	0x3bc82d84	0.0061089415
37	0x00000000	0.0
38	0xbc81d30e	-0.015847709
39	0x00000000	0.0
40	0x3a552840	0.0008131303
41	0x00000000	0.0
42	0xbc0432b9	-0.008068734
43	0x00000000	0.0
44	0x3be64d68	0.0070282705
45	0x00000000	0.0
46	0x3ba771a2	0.0051099816
47	0x00000000	0.0
48	0xbc467029	-0.012111702
49	0x00000000	0.0
50	0xba6d563a	-0.0009053681
51	0x00000000	0.0
52	0x3b25dce0	0.0025308654
53	0x00000000	0.0
54	0xbc2da2ae	-0.010597868
55	0x00000000	0.0
56	0xbc182277	-0.009285561
57	0x00000000	0.0
58	0x3bdf2fc2	0.006811113
59	0x00000000	0.0
60	0x3ba822a7	0.005131084
61	0x00000000	0.0
62	0x3b798b6c	0.0038077487
63	0x00000000	0.0
64	0x3b63f4fa	0.0034783469
65	0x00000000	0.0
66	0x3c067108	0.00820566
67	0x00000000	0.0
68	0xbbaedbe8	-0.0053362735
69	0x00000000	0.0
70	0x3b70e4b8	0.003675742
71	0x00000000	0.0
72	0xbc228876	-0.00992023
73	0x00000000	0.0
74	0xbb2078b1	-0.0024486
75	0x00000000	0.0
76	0xbbb68937	-0.0055705565
77	0x00000000	0.0
78	0xbc6cba5c	-0.014448728
79	0x00000000	0.0
80	0x3bc8dce3	0.0061298474
81	0x00000000	0.0
82	0xbaef086d	-0.0018236764
83	0x00000000	0.0
84	0x3bbbe4a6	0.005734044
85	0x00000000	0.0
86	0xbad71ed6	-0.0016412388
87	0x00000000	0.0
88	0x3bf11028	0.0073566623
89	0x00000000	0.0
90	0xbafe94ab	-0.0019422969
91	0x00000000	0.0
92	0xbbda4a4c	-0.006661689
93	0x00000000	0.0
94	0xbb12d588	-0.0022405107
95	0x00000000	0.0
96	0xba88699d	-0.0010407452
97	0x00000000	0.0
98	0x3b112322	0.0022146185
99	0x00000000	0.0
100	0x3c0a471f	0.008439808
101	0x00000000	0.0
102	0x3c02096a	0.007936815
103	0x00000000	0.0
104	0x3b30413c	0.0026894351
105	0x00000000	0.0
106	0x3b95d2c5	0.004572245
107	0x00000000	0.0
108	0x3b836202	0.004009486
109	0x00000000	0.0
110	0x3bc4c9c7	0.006005499
111	0x00000000	0.0
112	0x3be2728a	0.006910627
113	0x00000000	0.0
114	0x3c9121e9	0.017716365
115	0x00000000	0.0
116	0x3a74a77e	0.00093328196
117	0x00000000	0.0
118	0xbc51ae2b	-0.012797873
119	0x00000000	0.0
120	0xbc0251ab	-0.0079540415
121	0x00000000	0.0
122	0x3a8f0413	0.0010911248
123	0x00000000	0.0
124	0xbb0a5629	-0.0021108484
125	0x00000000	0.0
126	0x3b17b958	0.0023151245
127	0x00000000	0.0
128	0xba334d8e	-0.00068398647
129	0x00000000	0.0
130	0xbc550642	-0.01300198
131	0x00000000	0.0
132	0xbbf05112	-0.007333883
133	0x00000000	0.0
134	0x3bdc16d4	0.0067165885
135	0x00000000	0.0
136	0xbc4a400c	-0.0123443715
137	0x00000000	0.0
138	0x3a4451f6	0.000748902
139	0x00000000	0.0
140	0xbbdb4c24	-0.0066924263
141	0x00000000	0.0
142	0xbc0b232b	-0.008492271
143	0x00000000	0.0
144	0xbb9151f8	-0.0044348203
145	0x00000000	0.0
146	0xbb3e71de	-0.002905957
147	0x00000000	0.0
148	0xbc35c5ac	-0.011094492
149	0x00000000	0.0
150	0xba589759	-0.00082622987
151	0x00000000	0.0
152	0x3c12610b	0.00893427
153	0x00000000	0.0
154	0x3b5c0d02	0.003357709
155	0x00000000	0.0
156	0x3c719f00	0.014747381
157	0x00000000	0.0
158	0xbbd26a1d	-0.006421341
159	0x00000000	0.0
160	0xbc964d31	-0.018347355
161	0x00000000	0.0
162	0xbc18cb04	-0.009325746
163	0x00000000	0.0
164	0x3ba0b810	0.0049047545
165	0x00000000	0.0
166	0xbc44923e	-0.0119977575
167	0x00000000	0.0
168	0x3a960a5e	0.0011447181
169	0x00000000	0.0
170	0xbb9beef6	-0.004758711
171	0x00000000	0.0
172	0xba40afaa	-0.0007350395
173	0x00000000	0.0
174	0x3c58efdd	0.013240782
175	0x00000000	0.0
176	0xbc12dc7e	-0.008963702
177	0x00000000	0.0
178	0x3c3fa71a	0.011697555
179	0x00000000	0.0
180	0x3b841e32	0.00403192
181	0x00000000	0.0
182	0x399215d8	0.00027863565
183	0x00000000	0.0
184	0xbc019172	-0.007908212
185	0x00000000	0.0
186	0xbb2671e6	-0.0025397479
187	0x00000000	0.0
188	0xbd013924	-0.031548634
189	0x00000000	0.0
190	0x3aa4b38e	0.0012565718
191	0x00000000	0.0
192	0x3a29b0c0	0.0006473176
193	0x00000000	0.0
194	0x3b7a0768	0.0038151387
195	0x00000000	0.0
196	0xbb64ab4b	-0.0034892138
197	0x00000000	0.0
198	0xbc24019a	-0.0100101475
199	0x00000000	0.0
200	0x3c082e8b	0.008311878
201	0x00000000	0.0
202	0x3cb2a5dc	0.021807604
203	0x00000000	0.0
204	0x3baa747f	0.0052018757
205	0x00000000	0.0
206	0xbc1bd274	-0.009510625
207	0x00000000	0.0
208	0x3c950ccd	0.01819458
209	0x00000000	0.0
210	0x3ab957cc	0.0014140545
211	0x00000000	0.0
212	0x3ac2f689	0.0014874499
213	0x00000000	0.0
214	0xbb87da16	-0.004145871
215	0x00000000	0.0
216	0x3c369ed7	0.011146269
217	0x00000000	0.0
218	0x3a223253	0.00061873085
219	0x00000000	0.0
220	0x3c3ec7e6	0.011644339
221	0x00000000	0.0
222	0x3c121a9e	0.008917479
223	0x00000000	0.0
224	0xbabded7e	-0.0014490334
225	0x00000000	0.0
226	0x3bbe5813	0.005808839
227	0x00000000	0.0
228	0xbcb847a8	-0.022495106
229	0x00000000	0.0
230	0xbbe45a50	-0.006968774
231	0x00000000	0.0
232	0x3b14874f	0.0022663658
233	0x00000000	0.0
234	0xbc76815a	-0.015045488
235	0x00000000	0.0
236	0xbc2ef72e	-0.010679049
237	0x00000000	0.0
238	0xbc4a2832	-0.012338685
239	0x00000000	0.0
240	0xbb0774e6	-0.0020669042
241	0x00000000	0.0
242	0xbb46cec8	-0.0030335654
243	0x00000000	0.0
244	0xbb96e750	-0.0046052113
245	0x00000000	0.0
246	0xbb2d1871	-0.0026412273
247	0x00000000	0.0
248	0xbb9b4bcc	-0.0047392603
249	0x00000000	0.0
250	0xbc08dace	-0.008352948
251	0x00000000	0.0
252	0xbbbe2d94	-0.005803773
253	0x00000000	0.0
254	0xbc2f21b7	-0.010689191
255	0x00000000	0.0

proj_right f4 [2, 4096]
0	0xbd1921d9	-0.037385795
1	0x3dbf133e	0.09329842
2	0x3e013f82	0.12621883
3	0xbde3f433	-0.11130562
4	0x3c89695e	0.016773876
5	0xbda3844c	-0.07984218
6	0xbd259320	-0.040423512
7	0xbcc52976	-0.024067622
8	0xbd98ec20	-0.07466912
9	0x3e0eb297	0.13935314
10	0xbd73ceea	-0.0595235
11	0x3d927028	0.07150298
12	0xbe0dce78	-0.13848293
13	0x3e376dc4	0.17912966
14	0xbdc260e4	-0.09491137
15	0xbe3b8946	-0.18314084
16	0xbd5bef95	-0.05369528
17	0x3df83745	0.12119917
18	0x3e5a4144	0.2131396
19	0x3d2e7a90	0.042597353
20	0xbe127eba	-0.14306155
21	0xbd806938	-0.06270069
22	0x3e210ed9	0.1572832
23	0x3dd2b708	0.10288817
24	0xbce9ccd3	-0.02854005
25	0x3bbd065b	0.00576858
26	0x3e360cb3	0.17778282
27	0xbe03cb83	-0.12870602
28	0x3e53bd1a	0.20677605
29	0xbc2bb692	-0.01048054
30	0xbd9f748a	-0.077859
31	0x3bc2865c	0.005936427
32	0x3ccc2a54	0.024922527
33	0x3d1df2d0	0.038561642
34	0xbe0cef44	-0.13763148
35	0x3dbdee8a	0.09274013
36	0x3d938a06	0.0720406
37	0x3cf16340	0.029466271
38	0x3e641fcb	0.22277753
39	0x3d9c4358	0.07630032
40	0x3e80573a	0.2506655
41	0x3e804e66	0.25059813
42	0x3de0ba13	0.10972991
43	0xbe458234	-0.1928795
44	0x3d9d7aa8	0.076894104
45	0x3da2b120	0.0794394
46	0xbd462ffe	-0.048385613
47	0x3d48004e	0.048828416
48	0xbd0a8204	-0.0338154
49	0xbe1e2c88	-0.15446675
50	0xbd025483	-0.031818878
51	0x3d86aa99	0.06575508
52	0x3d1358a2	0.0359732
53	0xbcc44a8f	-0.023961334
54	0x3e8e938d	0.27846947
55	0xbe0e4020	-0.13891649
56	0xbdca2760	-0.098707914
57	0xbcde726d	-0.027154172
58	0x3d7c515a	0.06160102
59	0xbeca4f83	-0.39513788
60	0xbe3605d1	-0.17775656
61	0x3da697e1	0.08134437
62	0x3cadb8ca	0.021206278
63	0xbde5578e	-0.1119834
64	0x3e479228	0.19489348
65	0xbdae1ec8	-0.08501965
66	0xbe2a0c9f	-0.16606377
67	0xbda81376	-0.08206837
68	0x3db8a42e	0.0901569
69	0xbd8c1c8e	-0.06841384
70	0xbd5d33bc	-0.054004416
71	0xbe815c6c	-0.25265825
72	0x3cfc6ffd	0.030815119
73	0x3d33c41c	0.043888196
74	0xbd4b8da6	-0.049695633
75	0xbd91cfab	-0.07119688
76	0xbdf03d54	-0.117304474
77	0x3e49ac4b	0.19694631
78	0x3e51400a	0.20434585
79	0xbe2ccc36	-0.16874775
80	0xbe752c13	-0.23942594
81	0xbd2a0a99	-0.041514013
82	0x3db2eaf8	0.08736223
83	0xbd68b7fc	-0.056816086
84	0x3d47a0e7	0.048737433
85	0x3d8b7851	0.06810058
86	0xbe0d53d8	-0.13801515
87	0x3d14c9b4	0.03632517
88	0x3ccaa08b	0.024734756
89	0x3cdf7872	0.027279112
90	0x3e09e1dd	0.13465066
91	0xbe3f8130	-0.18701625
92	0x3c7bf98c	0.015379321
93	0xbe4015df	-0.18758343
94	0x3befa55f	0.007313415
95	0xbc1b61ec	-0.009483796
96	0x3d16b06a	0.036789335
97	0x3d258e12	0.040418692
98	0xbd07551e	-0.03304016
99	0xbde7d4f8	-0.113199174
100	0x3de1c214	0.110233456
101	0xbcfd8457	-0.030946894
102	0x3dbb65c0	0.09150267
103	0x3c728601	0.014802457
104	0xbdb0b2c4	-0.08627847
105	0x3d0105c9	0.031499658
106	0x3c2580be	0.010101495
107	0xbe0aeb4e	-0.13566324
108	0x3d9aad8b	0.07552632
109	0xbddd7c32	-0.10814704
110	0x3defbd58	0.11706036
111	0x3d75fe0a	0.060056724
112	0x3d9175e2	0.071025625
113	0xbdc025ec	-0.09382233
114	0x3d492eb6	0.049116813
115	0xbe00c0f4	-0.12573606
116	0x3e72c208	0.2370683
117	0x3bd45cfc	0.006480811
118	0xbe53c431	-0.2068031
119	0xbd33dd52	-0.04391224
120	0x3da4dbec	0.08049759
121	0x3d5dc044	0.054138437
122	0xbc8058ea	-0.015667398
123	0xbd54b57d	-0.051930893
124	0xbe3dc128	-0.18530715
125	0x3c417f22	0.011810096
126	0xbdbc5d1d	-0.091974474
127	0xbe02a190	-0.12756944
128	0xbd87d359	-0.06632108
129	0x3b3105a9	0.002701143
130	0x3cefac52	0.029256973
131	0x3c82603c	0.015915029
132	0x3e5759b4	0.21030313
133	0x3cb06f8a	0.021537561
134	0xbdb0f6f7	-0.08640855
135	0x3d64a492	0.05582101
136	0x3d7c4f20	0.061598897
137	0xbcfe85e8	-0.03106971
138	0xbd161c2e	-0.036647968
139	0x3cfe71df	0.031060157
140	0xbce2fad0	-0.027707487
141	0x3db7585c	0.089524
142	0xbd336d76	-0.043805562
143	0x3e22f7c3	0.15914826
144	0x3d878ae0	0.06618285
145	0xbd802d7c	-0.062586755
146	0xbe0b8b98	-0.1362747
147	0x3d02a9fc	0.03190039
148	0x3ccbc418	0.024873778
149	0x3e8351b0	0.2564826
150	0x3d6e7b33	0.05822296
151	0xbe38a1d5	-0.18030484
152	0xbdc352c1	-0.095372684
153	0x3da13182	0.07870771
154	0xbc7b7da0	-0.015349776
155	0x3e47ead3	0.19523172
156	0x3d4515d6	0.048116527
157	0xbc9ea78e	-0.019367006
158	0x3d121faf	0.035674747
159	0x3ddbfb5a	0.10741301
160	0x3ded2ee6	0.11581211
161	0xbcfaa559	-0.030596422
162	0xbddec01c	-0.10876486
163	0x3cb09589	0.021555679
164	0xbccd08c4	-0.025028594
165	0x3e391f7a	0.18078414
166	0xbe131e48	-0.1436702
167	0xbd84926c	-0.0647324
168	0x3cdc713a	0.02690946
169	0xbe02a5b3	-0.12758522
170	0xbd87219e	-0.06598209
171	0x3d1ff768	0.039054304
172	0xbcc6ed32	-0.024283025
173	0xbd532b58	-0.051555008
174	0xbbd5499e	-0.00650902
175	0x3e37ee30	0.17961955
176	0x3e25fb1a	0.16209069
177	0xbd9d9c1d	-0.07695792
178	0xbac54a08	-0.001505197
179	0x3d2ef610	0.042715132
180	0x3e23c3fe	0.15992734
181	0xbdb33dde	-0.087520346
182	0xbcb52ad9	-0.022115158
183	0x3b0315f5	0.00200021
184	0x3d9991cc	0.07498512
185	0xbc1a46ab	-0.009416263
186	0x3db7e8e8	0.0897997
187	0xbd747ef6	-0.059691392
188	0xbd5a580c	-0.053306624
189	0xbd46b855	-0.048515636
190	0xbced6d22	-0.028982703
191	0xbd7137da	-0.058891155
192	0x3bf2b38d	0.007406658
193	0xbcea608c	-0.02861049
194	0xbd224ddc	-0.039625034
195	0x3c1cbf74	0.00956713
196	0x3df3f29c	0.119115084
197	0x3d62f2b4	0.05540724
198	0x3c22876c	0.009919982
199	0xbe21424a	-0.15747944
200	0xbd8ac49e	-0.06775783
201	0x3d1f2446	0.038852952
202	0x3ddb1756	0.1069781
203	0x3d9bfbcd	0.076163866
204	0xbd4acb50	-0.0495103
205	0x3df70efe	0.120634064
206	0x3d8fbc46	0.07018332
207	0x3e08e1dc	0.13367409
208	0x3e07cb2f	0.13261102
209	0xbe1b568d	-0.15169735
210	0xbd0da670	-0.034582555
211	0x3e05eac8	0.13077843
212	0xbcbbb538	-0.02291356
213	0x3dccd596	0.10001676
214	0x3dc130d3	0.094331406
215	0xbe1eac0d	-0.1549532
216	0xbdc4f711	-0.09617437
217	0xbd8f7afc	-0.07005879
218	0xbe44cf6f	-0.19219755
219	0x3db643c4	0.08899644
220	0xbe35fb3b	-0.17771618
221	0xbc9e2cf7	-0.01930855
222	0xbc00a7bf	-0.007852494
223	0xbddc1b56	-0.107474014
224	0xbe059ff8	-0.13049304
225	0xbe182764	-0.14858776
226	0xbdbb9b84	-0.091605216
227	0x3e93aa9c	0.28841102
228	0xbdbcc60a	-0.092174605
229	0x3cfb904f	0.03070846
230	0x3e26f6a4	0.16305023
231	0xbe068b7b	-0.13139145
232	0x3c13d5ff	0.009023189
233	0x3e4805d3	0.19533472
234	0xbd17c7bc	-0.037055716
235	0x3d1f4b5c	0.038890228
236	0xbcd533b4	-0.02602563
237	0x3dfa98e2	0.12236191
238	0xbbfee2c7	-0.007778499
239	0x3dd2937e	0.10282038
240	0x3c13f3c6	0.009030288
241	0x3e5eb66a	0.21749273
242	0x3d85192e	0.06498943
243	0xbbd4464c	-0.0064781066
244	0xbe60fdf9	-0.21971883
245	0x3bab68bc	0.005230991
246	0xbda1e238	-0.07904476
247	0x3b76e402	0.0037672524
248	0xbd561062	-0.052261718
249	0xbd1155f9	-0.03548238
250	0xbdc2c064	-0.09509352
251	0x3c2fd5c0	0.010732114
252	0xbe6047ea	-0.21902433
253	0xbdc3f5e4	-0.09568384
254	0xbe4ae604	-0.19814306
255	0xb98d41cc	-0.00026942638

bias f4 [4096]
0	0xbd1ba169	-0.03799573
1	0x3db61b01	0.08891869
2	0x3bce1c0f	0.006289966
3	0x3daee02f	0.085388534
4	0x3d7204ba	0.05908654
5	0xbd4d2dd0	-0.05009252
6	0xbddd8033	-0.10815468
7	0xbbee700b	-0.00727654
8	0xbb15054e	-0.0022738758
9	0xbdb286a9	-0.08717091
10	0x3dbfcbd1	0.09365047
11	0xbdd8e413	-0.10590377
12	0xbc6e6f98	-0.014552973
13	0xbd0d36a6	-0.034475945
14	0x3d2501ac	0.040284798
15	0xbd8502ce	-0.064946756
16	0xbdff82a5	-0.1247609
17	0xbd32729f	-0.043566342
18	0xbdf9dce0	-0.12200332
19	0x3e3da663	0.18520503
20	0x3cd95e64	0.026534267
21	0xbe358544	-0.17726618
22	0xbe2475cd	-0.16060562
23	0xbe9a529a	-0.30141145
24	0x3daca5b1	0.08430041
25	0xbd6ea0fa	-0.058258988
26	0x3d460225	0.04834189
27	0x3d9b7a3e	0.07591675
28	0x3e38287b	0.17984192
29	0x3e3de868	0.18545687
30	0x3ccda9b3	0.025105333
31	0xbe1054ad	-0.14094801
32	0x3e4e1a66	0.20127258
33	0xbda6b0c9	-0.08139188
34	0xbd9f45a2	-0.07776953
35	0x3e67f848	0.22653306
36	0xbd8d5f04	-0.069028884
37	0xbe95e81a	-0.29278642
38	0x3d4a9694	0.04946001
39	0xbd036ce6	-0.032086276
40	0x3d2f702a	0.042831577
41	0x3e67c876	0.22635064
42	0xb95dd8ae	-0.00021156922
43	0xbdb05101	-0.086092
44	0x3d5b7150	0.05357486
45	0x3eb61149	0.35560063
46	0xbcb82108	-0.022476688
47	0xbd0f0123	-0.034913193
48	0x3e299a52	0.16562775
49	0xbe5ee46f	-0.21766828
50	0xbdd7b124	-0.10531834
51	0x3bbd3068	0.0057735927
52	0xbe945d07	-0.28977224
53	0xbd0c83a8	-0.034305245
54	0x3def2410	0.116768
55	0xbe31b15d	-0.17352815
56	0x3e52193e	0.20517442
57	0xbc3efd18	-0.011657022
58	0xbe1d589c	-0.15365833
59	0x3df61dfe	0.12017439
60	0x3e2b2ff7	0.16717516
61	0xbdfd9528	-0.12381965
62	0x3d9cd36e	0.076575145
63	0x3d72f4ef	0.059315618
64	0x3ddfd0d9	0.109285064
65	0x3dcd7b3d	0.100332715
66	0x3d3fe13c	0.04684566
67	0xbdb50c6e	-0.088402614
68	0xbd0bdfb4	-0.034148887
69	0x3dcb0b95	0.099143185
70	0xbdbd1a45	-0.09233526
71	0xbc32ce6b	-0.010913472
72	0xbc2da3de	-0.010598151
73	0x3ae9d22e	0.0017839128
74	0xbcac2ea8	-0.021018341
75	0xbed96afa	-0.4246443
76	0xbd318457	-0.0433391
77	0xbd91df6c	-0.071226925
78	0xbdb8b125	-0.09018163
79	0x3e2d944f	0.16951106
80	0x3d7f8170	0.0623793
81	0xbd4373e5	-0.047717948
82	0x3dc8d8fb	0.09807011
83	0xbdcebcb7	-0.10094588
84	0x3d0de4ad	0.03464191
85	0x3e769033	0.24078445
86	0xbca4fceb	-0.020140132
87	0xbe2c7ec8	-0.16845238
88	0xbdefa1f0	-0.11700809
89	0xbcdf40ee	-0.02725264
90	0xbce5a317	-0.028031869
91	0xbe022a39	-0.12711419
92	0x3e03e100	0.128788
93	0x3dfc4be1	0.1231916
94	0xbd6337f8	-0.055473298
95	0xbe2adca5	-0.16685732
96	0x3df85f9b	0.1212761
97	0x3e4c6d8e	0.19963667
98	0xbb2e5906	-0.0026603355
99	0x3dfce5ff	0.12348556
100	0xbe0c55f2	-0.1370466
101	0xbe35626b	-0.17713325
102	0xbd50832c	-0.050906345
103	0x39ba6676	0.00035553024
104	0xbe259fa0	-0.16174173
105	0x3e3c9f4b	0.1842014
106	0x3d259bc7	0.040431764
107	0x3e6467e3	0.22305255
108	0x3e2ce98b	0.16885965
109	0x3db48462	0.088143125
110	0x3d7f3f7b	0.0623164
111	0x3e1a9c01	0.15098573
112	0xbe3947e1	-0.18093826
113	0x3d8b9a27	0.068165116
114	0x3e35c2a4	0.17750031
115	0x3e163109	0.14667143
116	0x3e146f0f	0.1449549
117	0xbce6d3d0	-0.028177172
118	0xbcaa2452	-0.020769272
119	0x3e95a4d2	0.2922731
120	0xbd8edd29	-0.06975777
121	0x3c6d1d81	0.014472366
122	0xbe9ad224	-0.3023845
123	0x3e2ad8ca	0.16684261
124	0xbdc319d1	-0.095264085
125	0x3dc3dd6a	0.09563716
126	0x3d441cd3	0.04787905
127	0xbe123abb	-0.14280216
128	0x3e189c10	0.14903283
129	0xbe12906d	-0.14312907
130	0x3e033ea7	0.12816869
131	0xbdb301be	-0.08740567
132	0xbe3b992c	-0.18320149
133	0xbd4d0608	-0.05005458
134	0xbd3c021e	-0.045900457
135	0xbca286da	-0.019839693
136	0x3db0f9b0	0.08641374
137	0x3dbc6bc9	0.09200246
138	0x3df349fc	0.11879346
139	0xbd944983	-0.07240584
140	0xbc906957	-0.017628355
141	0x3d0b490f	0.03400522
142	0xbe2dad5e	-0.16960666
143	0xbc26f95a	-0.010191286
144	0x3e78a611	0.242821
145	0x3dc9d6a4	0.098553926
146	0xbda52239	-0.08063168
147	0xbe1aeba6	-0.15128955
148	0xbe188253	-0.14893465
149	0x3e023b74	0.12717992
150	0x3d14155f	0.036153194
151	0xbd0106ca	-0.031500615
152	0xbc8f6ecf	-0.017508892
153	0xbe804f45	-0.25060478
154	0x3e9b1bcf	0.30294654
155	0xbe277721	-0.16354038
156	0xbd76b40b	-0.060230296
157	0xbebfe565	-0.37479702
158	0x3d085146	0.033280633
159	0x3e2ba0d7	0.16760574
160	0x3d749095	0.059708197
161	0x3c7282a2	0.014801653
162	0xbda7aca0	-0.081872225
163	0xbe1fe260	-0.15613699
164	0xbe35ed7f	-0.17766379
165	0xbd96fbe2	-0.073722616
166	0xbdcbdfcb	-0.099547945
167	0xbded5507	-0.11588483
168	0x3cda46d5	0.026645103
169	0x3e1a6384	0.15077025
170	0xbc7cbfe4	-0.01542661
171	0x3c3b94c7	0.0114490455
172	0x3e2227ee	0.15835544
173	0xbe0e7350	-0.13911176
174	0x3e8a7164	0.27039635
175	0xbe6ca9b1	-0.23111607
176	0x3defbae2	0.11705567
177	0x3c578394	0.013153929
178	0x3e8382d8	0.25685763
179	0xbce827d7	-0.02833931
180	0x3d4b9365	0.049701113
181	0x3dc0217d	0.093813874
182	0xbe25c012	-0.1618655
183	0xbe3127e9	-0.17300381
184	0xbdd6b07e	-0.10482882
185	0xbe726b4f	-0.23673747
186	0xbd6d3eac	-0.057921097
187	0xbe589a4c	-0.2115261
188	0x3de58409	0.11206824
189	0xbdc23b48	-0.09483963
190	0xbdbd0337	-0.09229129
191	0x3d9e5c8a	0.07732494
192	0x3e017284	0.1264134
193	0xbcc67b31	-0.024228664
194	0xbe21898c	-0.15775126
195	0xbd8f3885	-0.06993202
196	0x3e578b69	0.21049275
197	0xbe41e8a9	-0.18936409
198	0x3ce6858c	0.028139852
199	0xbe2773ac	-0.16352719
200	0x3d83bfd1	0.064330705
201	0xbbe250c3	-0.0069066
202	0xbd4692b0	-0.048479736
203	0xbd8cf56e	-0.068827495
204	0xbed56da2	-0.41685206
205	0x3ddc9e4a	0.10772379
206	0xbe36db27	-0.17857037
207	0xbd4704f0	-0.048588693
208	0xbd9febd7	-0.07808655
209	0xbe5dc2a5	-0.21656282
210	0xbed7b539	-0.4213045
211	0x3d8e5426	0.06949644
212	0x3d96c86e	0.07362448
213	0x3e57b2d6	0.21064314
214	0x3d441341	0.047869924
215	0xbd927435	-0.07151071
216	0x3ddf77fc	0.10911557
217	0xbe4062f5	-0.18787749
218	0xbdb9d1dd	-0.09073231
219	0xbe4918fb	-0.19638436
220	0xbe072471	-0.13197495
221	0x3dae67a1	0.085158594
222	0xbe424a85	-0.1897374
223	0xbcb76896	-0.022388738
224	0x3d7d7250	0.061876595
225	0x3dded843	0.108810924
226	0xbe8050a2	-0.25061518
227	0xbd88b457	-0.06675022
228	0x3e2ed320	0.17072725
229	0xbe41f6ab	-0.18941753
230	0xbe644e9d	-0.22295614
231	0x3ccc6725	0.024951527
232	0xbd2a3768	-0.041556746
233	0x3da8e21a	0.082462505
234	0xbdc7d50d	-0.09757433
235	0x3ddf279a	0.10896225
236	0xbd0b6dfd	-0.03404044
237	0x3e9c2395	0.30495897
238	0xbd4d5050	-0.05012542
239	0x3df4cce7	0.119531445
240	0xbed73f45	-0.42040458
241	0x3dadfe7a	0.08495803
242	0xbbfb29e5	-0.0076649063
243	0x3e1e0f0a	0.15435424
244	0xbe48c12f	-0.19604944
245	0xbd887f3c	-0.06664893
246	0xbdea6f7d	-0.11447046
247	0x3e0d9d33	0.13829498
248	0x3ead8e17	0.33897468
249	0x3d6e1b87	0.05813172
250	0xbeac9de5	-0.33714214
251	0x3e827504	0.254799
252	0xbe609b80	-0.21934319
253	0x3b5101ff	0.003189206
254	0xbe3e55ab	-0.18587367
255	0x3ca561fe	0.020188328
